assets/success_score_model.tflite (tflite, 48856 bytes, 7 tensors)

arith.constant f4 [1, 32]
0	0x3ea78a38	0.3272264
1	0xbee68bb8	-0.45028472
2	0xbf4930f6	-0.78590333
3	0xbf333a76	-0.7001108
4	0x3e851dd6	0.25999326
5	0x3eabd1fe	0.3355865
6	0x3e9bbde4	0.30418313
7	0x3e4b8d27	0.19878064
8	0x3f1a27b9	0.6021686
9	0xbf327182	-0.6970445
10	0x3e8fedd7	0.28111145
11	0x3ee42128	0.44556546
12	0xbef6dbb9	-0.4821451
13	0x3f024409	0.50885063
14	0x3eca41f3	0.3950344
15	0xbf3212a1	-0.69559675
16	0x3e562aef	0.20914815
17	0x3ecdf2e4	0.40224373
18	0xbf31fc01	-0.6952515
19	0xbf3be945	-0.73402816
20	0x3e9106fd	0.28325644
21	0xbe62f444	-0.22163492
22	0x3ee09b51	0.43868497
23	0xbf032226	-0.5122398
24	0xbf5c7e53	-0.86130255
25	0xbf559927	-0.83436817
26	0xbef7c0cf	-0.4838929
27	0x3e33d745	0.17562588
28	0x3f01ebd0	0.50750446
29	0xbf493dd5	-0.78609973
30	0x3f575f76	0.84130037
31	0xbf3c7110	-0.7361002

arith.constant1 f4 [32, 64]
0	0x3e568a1e	0.20951125
1	0x3eec7318	0.4618156
2	0xbef8015a	-0.4843853
3	0xbec7b7b2	-0.39007336
4	0xbd8fc5db	-0.0702016
5	0x3ecaced1	0.39610913
6	0xbf0c9af8	-0.54923964
7	0x3e2ce312	0.16883495
8	0xbdf89bc5	-0.12139086
9	0xbe672889	-0.22574057
10	0x3e2e786d	0.17038126
11	0xbe686f66	-0.22698745
12	0x3e325ddc	0.17418617
13	0xbf00dcaf	-0.50336736
14	0x3e5bcd1e	0.21464965
15	0xbdf2bfd9	-0.11852998
16	0x3e5a19f5	0.21298964
17	0xbbbabd31	-0.005698823
18	0x3e0d2af3	0.13785915
19	0xbda987a2	-0.08277823
20	0xbd355b90	-0.044276774
21	0x3dc74efe	0.097318634
22	0x3edee51c	0.43534172
23	0xbf021ce8	-0.5082536
24	0x3e11cbbf	0.14237879
25	0xbd8e978a	-0.069624975
26	0xbe474ccf	-0.19462894
27	0x3e7b9d8d	0.2457182
28	0x3e71e794	0.23623496
29	0xbd8b75f1	-0.06809605
30	0x3e86f3c5	0.26357856
31	0xbdd0cf88	-0.101958334
32	0xbe0bd278	-0.13654506
33	0xbd93cc10	-0.07216656
34	0xbeb405ec	-0.35160768
35	0x3e8cd0ae	0.2750296
36	0x3e3bf4a9	0.18355049
37	0x3d5bfc4d	0.05370741
38	0xbd14fce0	-0.036373973
39	0x3ecfa664	0.40556633
40	0x3e8a4855	0.2700831
41	0xbdb580d0	-0.0886246
42	0xbebe8b2c	-0.37215555
43	0x3de33446	0.11093955
44	0x3e0d9a00	0.13828278
45	0xbedd1fa4	-0.43188202
46	0xbe3463a4	-0.17616135
47	0x3f198ca7	0.59980243
48	0x3e236ae5	0.15958746
49	0x3e2ead2c	0.17058247
50	0x3e74e13e	0.23914048
51	0x3d74328b	0.059618514
52	0x3e94f271	0.29091218
53	0xbeae01d4	-0.3398577
54	0x3e905e6f	0.28197047
55	0xbc909cb1	-0.017652841
56	0xbec2c95f	-0.3804426
57	0xbe00acb5	-0.12565883
58	0x3d313929	0.043267403
59	0xbe80c95b	-0.25153622
60	0x3e5f9bc7	0.21836768
61	0xbda36f7f	-0.079802506
62	0xbe8ba93f	-0.27277562
63	0x3ea64db5	0.3248116
64	0xbd9f2ebc	-0.07772586
65	0x3e5fb4e6	0.21846351
66	0x3e621792	0.22079304
67	0xbdefbe2a	-0.11706193
68	0x3e369e11	0.17833735
69	0xbeb1cc02	-0.34725958
70	0x3e7202f3	0.23633938
71	0xbe2d2ece	-0.16912386
72	0xbddf31f7	-0.10898202
73	0xbe4e212d	-0.20129843
74	0xbdd3961c	-0.103313655
75	0xbdbcafa8	-0.09213191
76	0xbe0f8eee	-0.14019367
77	0x3df2c0bb	0.11853167
78	0xbd5c3b44	-0.053767458
79	0xbea16ca6	-0.31528205
80	0xbe377b13	-0.17918043
81	0x3db99f47	0.09063583
82	0x3ea3ab34	0.31966555
83	0x3e6dd7fd	0.23226924
84	0x3d954fa1	0.07290579
85	0xbeef2305	-0.46706405
86	0x3e8eed79	0.27915552
87	0xbdb6c604	-0.08924487
88	0xbd985f12	-0.07440008
89	0xbe44ad5f	-0.19206761
90	0xbe1330de	-0.1437411
91	0x3e8cda86	0.2751047
92	0xbb24e000	-0.0025157928
93	0x3e024796	0.1272262
94	0xbdc55496	-0.09635274
95	0xbedd1666	-0.4318115
96	0xbe9fcabe	-0.31209368
97	0xbc81f029	-0.015861588
98	0x3d66ee6b	0.056379717
99	0xbe051d89	-0.12999548
100	0x3df5a8e0	0.11995101
101	0xbeb61185	-0.3556024
102	0x3eb819b7	0.3595712
103	0xbd5ee829	-0.054420624
104	0x3dc63dd5	0.09679762
105	0xbcc30e2f	-0.023810474
106	0xbe69e4a0	-0.2284112
107	0xbdcc761b	-0.09983464
108	0xbdade439	-0.08490796
109	0xbde1b5b4	-0.11020985
110	0x3dbc6471	0.09198845
111	0xbea58625	-0.32328907
112	0xbd95e72a	-0.07319482
113	0xbe37c133	-0.17944793
114	0xbe875301	-0.26430514
115	0x3dd86dd9	0.10567827
116	0x3c899275	0.016793469
117	0x3e8f26e0	0.27959347
118	0x3e42be0b	0.19017808
119	0xbeb8e6fe	-0.36113733
120	0xbe550ff0	-0.20806861
121	0xbd8ced26	-0.0688117
122	0x3e400e4b	0.18755452
123	0x3e620f4b	0.22076146
124	0x3e6892fe	0.22712323
125	0x3c6813ae	0.014164848
126	0x3de12db1	0.10995043
127	0x3d2aa3eb	0.04166023
128	0x3e2aa672	0.16665056
129	0x3d047b8b	0.032344382
130	0x3e0d4c2c	0.13798589
131	0xbd11502d	-0.035476852
132	0x3e4be970	0.19913268
133	0xbee61cf4	-0.44943964
134	0xbe388fcf	-0.18023609
135	0xbe6ca5e3	-0.23110156
136	0x3d8eb991	0.06968988
137	0xbd1dd5c7	-0.038533952
138	0xbe204adf	-0.15653561
139	0x3e031938	0.12802589
140	0xbd80b081	-0.062836654
141	0xbec4892e	-0.3838591
142	0x3e25a235	0.16175158
143	0xbf0051d5	-0.50124866
144	0xbdd54fbc	-0.10415599
145	0xbe0a223a	-0.13489619
146	0xbdafa362	-0.08576085
147	0x3e444c9e	0.19169852
148	0xbe5f0564	-0.217794
149	0xbe8705ff	-0.26371762
150	0xbc8b5137	-0.0170065
151	0xbde9372a	-0.11387475
152	0xbeede702	-0.46465307
153	0xbbae1bd2	-0.005313375
154	0xbdd2462b	-0.1026729
155	0x3eeb0124	0.45899308
156	0xbeb37986	-0.35053653
157	0xbe70117a	-0.23444167
158	0xbea1806d	-0.31543294
159	0x3e8bbf17	0.27294227
160	0xbef010a8	-0.46887708
161	0xbea08ad1	-0.3135591
162	0xbe8295fa	-0.25505048
163	0x3e867950	0.2626443
164	0xbe55dc1a	-0.20884743
165	0xbe878fe1	-0.26476958
166	0x3e87bd56	0.2651164
167	0xbf0bd70f	-0.5462503
168	0xbe9aa3c9	-0.30203083
169	0x39090170	0.00013065874
170	0xbd51fffb	-0.051269513
171	0xbc885460	-0.016641796
172	0x3e48b52d	0.19600363
173	0xbc0b9640	-0.008519709
174	0x3e612e39	0.21990289
175	0xbe442b34	-0.19157106
176	0xbcadf91b	-0.021236947
177	0x3e43e003	0.19128422
178	0x3e868196	0.2627074
179	0xbe740acb	-0.23832242
180	0xbb8c4d84	-0.0042817015
181	0x3ec6a58d	0.3879818
182	0x3d9634e3	0.07334306
183	0xbece2f7c	-0.40270603
184	0x3da60922	0.08107211
185	0x3e10674e	0.14101908
186	0x3e0d2d94	0.13786918
187	0x3e506078	0.203493
188	0x3e1c68c8	0.15274346
189	0x3e3a5e6b	0.1820008
190	0x3ed275ef	0.411056
191	0x3d9ebc16	0.07750718
192	0x3c2df5f9	0.0106177265
193	0xbe0bcdb2	-0.13652685
194	0x3b53ea55	0.0032335718
195	0x3eae81b9	0.34083346
196	0xbe21f76e	-0.15817043
197	0x3e0b03fc	0.13575739
198	0xbd7d2009	-0.06179813
199	0xbdab7911	-0.08372701
200	0xbe00925f	-0.12555836
201	0x3e707ae3	0.23484378
202	0xbeef0a03	-0.46687326
203	0xbd90079d	-0.07032702
204	0xbdd56015	-0.10418717
205	0x3ef6a710	0.48174334
206	0x3d176e34	0.036970332
207	0xbd8a2894	-0.06746021
208	0x3e033521	0.12813236
209	0xbe5f45d5	-0.21803983
210	0xbee18e5b	-0.4405392
211	0xbbb83af1	-0.0056222607
212	0x3ebd54e4	0.3697883
213	0xbe4342fe	-0.19068524
214	0xbe399c09	-0.18125929
215	0x3d5f6285	0.054537315
216	0xbd7e4923	-0.062081467
217	0xbe870391	-0.26369908
218	0xbe68ef21	-0.2274747
219	0x3e50171e	0.20321319
220	0xbeb10557	-0.34574386
221	0x3e382978	0.17984569
222	0x3e1e66f0	0.15468955
223	0x3e69b63d	0.22823425
224	0x3e3221bb	0.1739568
225	0xbe77f16e	-0.24213192
226	0x3d6ad280	0.057329655
227	0x3e5cb2d9	0.215526
228	0x3d0a3aa0	0.033747315
229	0xbe5ffee7	-0.21874581
230	0xbdabfd37	-0.08397906
231	0x3e515cdf	0.20445584
232	0x3c5b8893	0.013399261
233	0x3d52343f	0.051319357
234	0x3e97dc3a	0.29660207
235	0x3defd52b	0.117105804
236	0xbd551258	-0.052019447
237	0x3ed28937	0.41120312
238	0x3e32ca19	0.17459907
239	0xbddcf3cf	-0.1078869
240	0x3df382c8	0.11890179
241	0xbe307908	-0.1723367
242	0x3c381715	0.011235972
243	0x3e8730e3	0.26404485
244	0xbebc918b	-0.3682979
245	0x3dbb5b50	0.09148276
246	0xbedb8456	-0.42874402
247	0xbe88bac5	-0.26704994
248	0xbe06ee91	-0.13176943
249	0xbe8fd63c	-0.28093135
250	0x3c91f14c	0.017815255
251	0xbdcf9a4a	-0.1013685
252	0xbcce4565	-0.025179574
253	0x3dc6e503	0.09711649
254	0x3ea84386	0.32864016
255	0x3e58033c	0.21094984

arith.constant2 f4 [64, 128]
0	0x3c086704	0.008325342
1	0x3d11a9c1	0.03556228
2	0xbbc2cefe	-0.0059450855
3	0x3d9a8d65	0.075465
4	0xbdd6073e	-0.104506
5	0x3df3a29e	0.11896251
6	0xbd3a5dc6	-0.045499586
7	0xbd5a1e52	-0.053251572
8	0x3ddd6c38	0.10811657
9	0x3c4378ed	0.011930686
10	0xbe2c3714	-0.16817886
11	0x3c87e74e	0.016589787
12	0xbde4de37	-0.111751966
13	0xbe1106af	-0.14162706
14	0x3d1ef00f	0.038803156
15	0x3d9c3562	0.076273695
16	0xbe6ea436	-0.23304829
17	0x3e00a85a	0.12564221
18	0xbdcaf10f	-0.099092595
19	0x3e49d3aa	0.1970965
20	0xbd8e76b8	-0.069562376
21	0x3da78571	0.08179749
22	0x3e388312	0.1801875
23	0xbd776096	-0.060394846
24	0x3e40e9cb	0.18839185
25	0x3de97778	0.1139974
26	0x3da1ee0b	0.07906731
27	0x3e499d75	0.19688971
28	0xbbfa9d07	-0.0076481136
29	0xbdee1488	-0.1162501
30	0x3e03bd47	0.12865172
31	0xbe329e9c	-0.17443317
32	0xbd5c7944	-0.053826585
33	0x3e5ac6b5	0.21364863
34	0xbde32b8e	-0.11092292
35	0xbc289447	-0.010289258
36	0x3d2ac1f2	0.041688867
37	0x3dd24225	0.10266522
38	0xbd390b90	-0.045177042
39	0xbd91fee3	-0.07128694
40	0x3d6b765f	0.057485934
41	0xbc573cb0	-0.013137028
42	0x3ce8c538	0.028414354
43	0x3da5f590	0.08103478
44	0xbdc0aae9	-0.094075985
45	0xbdf3f064	-0.11911085
46	0xbd8ffe62	-0.070309415
47	0x3cd49969	0.025952058
48	0x3dbc3502	0.09189798
49	0xbe8f3e6b	-0.2797731
50	0x3e057c86	0.13035783
51	0xbdf480d1	-0.11938632
52	0x3d3679ea	0.04454986
53	0x3def9ac6	0.116994426
54	0xbe681f25	-0.2266813
55	0x3dbbf760	0.091780424
56	0x3d25d3ae	0.040485077
57	0xbd793e20	-0.060850263
58	0x3d9ea078	0.07745451
59	0xbbb48ee0	-0.005510196
60	0x3d352f69	0.044234667
61	0x3de68cbf	0.11257314
62	0x3e1b3df4	0.15160352
63	0xbdd0a4fe	-0.1018772
64	0x3c4afb4c	0.012389015
65	0x3dd0b777	0.10191243
66	0x3bd89452	0.006609478
67	0x3e0b3333	0.1359375
68	0x3e0936d5	0.13399823
69	0x3d914ed7	0.07095116
70	0x3d00bf9e	0.03143274
71	0xbe0147ac	-0.12624997
72	0x3e5b1160	0.21393347
73	0xbdfeb3c2	-0.1243663
74	0xbdf1bc3f	-0.11803483
75	0xbe2e4384	-0.17017943
76	0x3d55c4da	0.052189685
77	0x3dc55941	0.096361645
78	0x3c01d2be	0.00792378
79	0x3e22aa7c	0.15885347
80	0x3de9fea8	0.11425525
81	0x3c0a0ab6	0.008425405
82	0xbdc34692	-0.095349446
83	0xbb123813	-0.0022311255
84	0x3dddf5b0	0.10837877
85	0xbd9a0a77	-0.07521527
86	0xbd1d4172	-0.03839249
87	0xbe08cdce	-0.13359758
88	0x3bd5183a	0.006503132
89	0x3db36dc3	0.0876117
90	0xbe06dcf3	-0.13170223
91	0xbe9484d7	-0.290076
92	0xbcf68c9c	-0.030096345
93	0xbcc4bb72	-0.024015162
94	0x3da78b65	0.08180884
95	0x3d451b2a	0.04812161
96	0xbd2d6f1a	-0.042342283
97	0xbdb594aa	-0.08866246
98	0xbe20505d	-0.15655656
99	0x3db56c63	0.08858564
100	0xbd298cd2	-0.041394062
101	0xbd948590	-0.072520375
102	0x3d17161e	0.036886327
103	0x3e194a11	0.1496966
104	0xbd99ec06	-0.07515721
105	0x3c4a0ca1	0.0123321125
106	0xbdb23a43	-0.08702519
107	0xbd35fce8	-0.044430643
108	0x3c7a49ac	0.015276354
109	0x3d791c82	0.060818203
110	0x3e2ba908	0.16763699
111	0x3da7bd11	0.081903584
112	0x3da1c6e2	0.07899262
113	0x3d0aee62	0.033918746
114	0xbdf83ce3	-0.12120988
115	0xbe3bfe8c	-0.1835882
116	0xbcab5b26	-0.020917486
117	0xbe18170f	-0.14852546
118	0x3e356206	0.17713174
119	0x3c692758	0.014230572
120	0x3e07aeff	0.1325035
121	0x3c9eb7b7	0.019374711
122	0xbc1d6796	-0.009607216
123	0xbd970423	-0.07373836
124	0x3d298143	0.04138304
125	0xbd9557ae	-0.07292114
126	0xbca3c6fe	-0.019992348
127	0x3d995e36	0.074886724
128	0xbd57928f	-0.052630004
129	0x3e836c49	0.25668553
130	0xbd0810dc	-0.033219203
131	0xbeb9526d	-0.36195698
132	0x3e20cd9f	0.15703438
133	0xbedd1801	-0.43182376
134	0xbdd46ec3	-0.103726886
135	0x3dcceb5d	0.100058295
136	0x3de89b32	0.11357726
137	0x3d8092f9	0.06278033
138	0xbc27d844	-0.010244433
139	0xbe4ae37b	-0.1981334
140	0x3e469b08	0.19395077
141	0x3db0f3b9	0.086402364
142	0x3c8027a4	0.015643902
143	0x3ed26cfc	0.41098773
144	0xbc83472e	-0.016025152
145	0x3d27acab	0.040936153
146	0x3e1e4864	0.15457302
147	0xbe84fedd	-0.25975695
148	0xbf0ed6ac	-0.55796313
149	0x3d1267bc	0.03574346
150	0xbe223fb4	-0.15844613
151	0x3c2dbc4b	0.010603975
152	0xbe87b63c	-0.2650622
153	0xbe0bc15e	-0.13647982
154	0xbd1b3d70	-0.03790039
155	0x3e900cde	0.28134817
156	0xbdbbe63f	-0.09174775
157	0x3bec6a68	0.007214833
158	0xbdb0fec0	-0.0864234
159	0xbec68672	-0.3877445
160	0x3e127b0d	0.14304753
161	0x3cf64611	0.030062707
162	0x3dadac31	0.084801085
163	0xbdfcdd2d	-0.123468734
164	0x3d78534f	0.060626324
165	0x3dd8abec	0.105796665
166	0x3debe1cc	0.11517677
167	0xbe0a80d6	-0.1352571
168	0xbd812bd2	-0.06307186
169	0x3e319ca0	0.17344904
170	0xbe04aae7	-0.12955819
171	0x3dba7c68	0.0910576
172	0xbf1f40c2	-0.6220819
173	0xbc29a074	-0.010353196
174	0x3c27743c	0.0102205835
175	0xbc5b9456	-0.013402065
176	0x3dbe23e1	0.09284187
177	0xbe247889	-0.16061606
178	0xbf5a3493	-0.8523647
179	0x3e6f8cb1	0.23393513
180	0x3e466398	0.1937393
181	0xbccce408	-0.025011078
182	0xbe792c41	-0.24333288
183	0xbee6725c	-0.45009124
184	0x3d846816	0.06465165
185	0xbc6982a9	-0.014252343
186	0xbe9806fb	-0.29692826
187	0xbdd319fc	-0.103076905
188	0x3e40a39e	0.18812415
189	0xbf078e38	-0.52951384
190	0xbe1a1b50	-0.15049481
191	0xbe915c6c	-0.28390825
192	0xbbadf7b0	-0.0053090677
193	0xbe2b103f	-0.16705416
194	0xbf0ab3ee	-0.541808
195	0xbdc6c6f1	-0.09705914
196	0x3c138347	0.009003467
197	0xbda77c59	-0.08178014
198	0xbe403b41	-0.18772604
199	0xbdd414e9	-0.10355551
200	0x3e9cf124	0.30652726
201	0xbeb3e016	-0.35131902
202	0xbe298365	-0.1655403
203	0x3dd2417d	0.10266397
204	0x3e656543	0.2240191
205	0xbf128390	-0.57232
206	0x3e43c874	0.19119436
207	0x3e20b2a4	0.15693146
208	0xbe57b667	-0.21065675
209	0xbee31bf2	-0.44357258
210	0x3d564294	0.052309588
211	0xbdc79535	-0.09745256
212	0x3d9bb080	0.07602024
213	0x3e239804	0.15975958
214	0xbe10c774	-0.14138585
215	0x3e15dad2	0.14634255
216	0xbde6b9bd	-0.112658955
217	0xbecd5597	-0.40104362
218	0xbed8a5a7	-0.42313883
219	0x3d614843	0.055000555
220	0x3e2baf45	0.16766079
221	0xbc3bb732	-0.011457251
222	0xbd8aa8bb	-0.06770464
223	0xbe0f6f8c	-0.14007396
224	0x3d4394dc	0.047749385
225	0xbd756776	-0.05991312
226	0xbddb2315	-0.10700051
227	0xbe8f4e4b	-0.2798942
228	0xbf3e9d71	-0.74458987
229	0x3de0f110	0.10983479
230	0x3e55e290	0.20887208
231	0xbe9334e3	-0.28751287
232	0x3a9b0fef	0.001183031
233	0xbf074478	-0.5283885
234	0xbdd20790	-0.10255349
235	0xbd8cf8e7	-0.06883412
236	0x3e62de0d	0.22155018
237	0xbe82c665	-0.25541988
238	0x3df0ff72	0.11767472
239	0x3d487663	0.048941027
240	0xbd1a68f6	-0.037697755
241	0xbe57c280	-0.2107029
242	0x3d9ace49	0.07558877
243	0xbdc89efa	-0.097959474
244	0x3de6047c	0.11231324
245	0xbde34e42	-0.11098911
246	0xbd0f970d	-0.035056163
247	0x3df96b70	0.12178695
248	0xbe868d6f	-0.2627978
249	0xbd06a5fa	-0.03287313
250	0xbe9e0c22	-0.30868632
251	0x3ed307a4	0.41216767
252	0x3e04a0e2	0.12951997
253	0x3d384eaf	0.044996914
254	0x3e88d631	0.26725915
255	0x3d9ffb40	0.07811594

arith.constant4 f4 [32]
0	0x3dd5eba9	0.10445339
1	0xbc123d51	-0.008925752
2	0xb99640ae	-0.0002865842
3	0xbd8e20f1	-0.06939877
4	0x3e0bcd4a	0.1365253
5	0x3dc573d3	0.09641232
6	0x3e02ebe7	0.12785302
7	0x3dc1e8fc	0.09468266
8	0x3df01c60	0.11724162
9	0x3ce7b3e1	0.028284015
10	0x3e09b757	0.13448845
11	0x3e05deea	0.13073316
12	0x3bf57ff4	0.00749206
13	0x3daddfea	0.08489974
14	0x3dd0c041	0.101929195
15	0xbc161866	-0.0091610905
16	0x3dcf3290	0.10117066
17	0x3dce54b6	0.10074751
18	0xbc5854d2	-0.0132038165
19	0x3d067c66	0.03283348
20	0x3dab2e80	0.083584785
21	0xbcd59ba3	-0.02607519
22	0x3daaf266	0.08347015
23	0xbab40756	-0.0013735096
24	0x3c3cb503	0.011517766
25	0x3cbdc320	0.023164332
26	0xbd425ad4	-0.0474499
27	0x3da297aa	0.07939084
28	0x3dab2247	0.08356147
29	0x3da8b0c1	0.08236838
30	0x3d594b2a	0.053050198
31	0xbd299648	-0.041403085

arith.constant5 f4 [64]
0	0x3d933e39	0.071896024
1	0xbc8a24bb	-0.016863218
2	0xbdbafe26	-0.09130506
3	0xbd804e79	-0.062649675
4	0x3e157c5c	0.1459822
5	0x3d19f542	0.03758741
6	0xbcf0092d	-0.02930125
7	0x3e11405c	0.14184707
8	0xbd156c53	-0.03648026
9	0x3dcbcdad	0.09951339
10	0x3c827acd	0.015927697
11	0x3de04092	0.10949816
12	0x3de4c094	0.11169544
13	0xbc434cc3	-0.011920157
14	0x3e129360	0.14314032
15	0x3da9fa29	0.082996674
16	0x3dd004cc	0.10157165
17	0x3e034e26	0.1282278
18	0xbb3cf2a2	-0.0028831144
19	0x3dcc75f9	0.09983439
20	0x3dfba486	0.1228724
21	0x3dbd8731	0.09254301
22	0x3db65a27	0.08903914
23	0xbdbe9e45	-0.09307531
24	0xbcb0f5c0	-0.021601558
25	0x3e09bcaf	0.13450883
26	0x3e082dc0	0.13298702
27	0x3d6642fc	0.056216225
28	0x3e5ec3c2	0.21754363
29	0x3ddcefa1	0.10787893
30	0x3dd17af4	0.102285296
31	0x3e1eddc4	0.15514284
32	0x3e0b60a7	0.13611089
33	0x3e0732db	0.13202994
34	0xbe169c80	-0.14708138
35	0x3e1b9bc0	0.15196133
36	0x3de96ebc	0.11398074
37	0x3df6e2ad	0.12054954
38	0x3d85b364	0.06528357
39	0x3cd018bd	0.025402421
40	0x3c991752	0.018687878
41	0x3dc0b1c0	0.09408903
42	0xbd6eb87d	-0.05828141
43	0x3d5c6219	0.05380449
44	0x3e33ee37	0.1757134
45	0xbd1540f6	-0.036438905
46	0x3b2de439	0.0026533736
47	0xbd812dab	-0.063075386
48	0x3e105f1d	0.14098783
49	0x3de87734	0.11350861
50	0x3e3fc980	0.1872921
51	0x3d0a8247	0.03381565
52	0x3c97d39c	0.01853352
53	0xbda33ed7	-0.0797097
54	0x3d834909	0.06410415
55	0x3d044171	0.032288972
56	0xbdfb2f62	-0.12264897
57	0x3ddc320f	0.107517354
58	0x3e351738	0.17684639
59	0xbd33a0c7	-0.0438545
60	0x3df97c40	0.12181902
61	0x3dffe7c8	0.12495381
62	0xbd9f2128	-0.07769996
63	0x3dd296bf	0.10282659

sequential_1_1/dense_4_1/BiasAdd/ReadVariableOp f4 [128]
0	0xbe1ea0f3	-0.15491085
1	0x3c36d2ee	0.011158688
2	0x3ddb9647	0.107220225
3	0xbe123348	-0.14277375
4	0xbd8ea726	-0.06965475
5	0xbc93f970	-0.018063277
6	0xbcca1279	-0.024667012
7	0xbde8a0d3	-0.113588
8	0x3dc1b2d2	0.094579354
9	0xbd211f71	-0.039336625
10	0x3db835a4	0.08994606
11	0x3d3a5dcd	0.04549961
12	0xbdea3180	-0.114352226
13	0x3e2536ee	0.16134235
14	0xbca47e29	-0.02007969
15	0xbde6f5d6	-0.11277358
16	0x3dd7d809	0.10539252
17	0x3c1be7cc	0.009515714
18	0x3d18b49b	0.037281614
19	0x3cc8d3e0	0.024515092
20	0x3cc3a2ed	0.0238814
21	0x3de5ccd7	0.11220711
22	0xbd00306a	-0.03129617
23	0x3dcad696	0.0990421
24	0x3d463d2d	0.048398186
25	0xbc2f0650	-0.010682657
26	0x3d55f6e1	0.052237395
27	0xbb07d396	-0.002072548
28	0xbd3ad58e	-0.045613818
29	0x3ddc44ba	0.10755296
30	0x3e47ee5f	0.19524525
31	0x3d93bef4	0.07214156
32	0xbe0efb90	-0.13963151
33	0xbd6d4019	-0.057922456
34	0x3caf7acb	0.021420857
35	0x3d2dd8f3	0.042443227
36	0xbcdc2e09	-0.02687742
37	0x3d92d373	0.07169237
38	0xbab615ed	-0.0013892032
39	0x3d376bac	0.04478042
40	0xbd86eee4	-0.065885335
41	0x3c1d1196	0.009586712
42	0xbd809ded	-0.06280122
43	0xbda7374b	-0.08164843
44	0xbca8cae6	-0.020604562
45	0x3df077d3	0.11741605
46	0xbdd83f22	-0.10558917
47	0xbd894bbc	-0.06703898
48	0xbd367486	-0.04454472
49	0xbdf7fbe7	-0.121085934
50	0x3dd3be61	0.10339046
51	0x3d483a2a	0.048883595
52	0xbe76ed0d	-0.24113865
53	0x3dc69fc7	0.09698444
54	0xbdc683d9	-0.09693117
55	0xbde8b189	-0.11361987
56	0x3d1fdfc8	0.039031774
57	0x3e0446c6	0.12917623
58	0x3d2e5050	0.04255706
59	0x3dee722b	0.116428696
60	0x3db20aff	0.086935036
61	0xbda3da7e	-0.080006585
62	0x3d674898	0.056465715
63	0xbcf61028	-0.030037
64	0x3de982ff	0.11401939
65	0xbe0c80a5	-0.13720949
66	0x3c470aa1	0.01214853
67	0xbd163ff6	-0.03668209
68	0x3da92574	0.08259097
69	0x3d2aaf59	0.04167113
70	0x3bf5ed98	0.00750513
71	0xbd8a2d74	-0.06746951
72	0xbe288330	-0.16456294
73	0x3e353cb1	0.17698933
74	0xbe866de8	-0.26255727
75	0xbe1b58f5	-0.15170653
76	0xbbcb8fc9	-0.006212209
77	0x3d9f6c25	0.07784299
78	0xbd54be3a	-0.051939227
79	0x3cd11bcd	0.025525952
80	0x3e32f9e1	0.17478134
81	0xbbded25d	-0.0067999796
82	0xbd235e58	-0.039884895
83	0x3e0f8f90	0.14019608
84	0xbcacc38d	-0.02108934
85	0xba976d04	-0.0011552875
86	0x3dcfb1a0	0.10141301
87	0xbde75dba	-0.11297174
88	0x3d78f59f	0.060781118
89	0xbcddddd9	-0.027083324
90	0x3d03aab7	0.03214523
91	0xbc9c0b43	-0.019048339
92	0xbc7b73c8	-0.015347429
93	0x3d8a1ff6	0.06744377
94	0x3d6e1cc2	0.058132894
95	0xbbf04413	-0.007332334
96	0xbdf7c56a	-0.120982006
97	0xbd1304e0	-0.03589332
98	0x3cd101d0	0.02551356
99	0x3d89314b	0.06698855
100	0x3d6504b5	0.055912692
101	0xbd05744b	-0.03258161
102	0x3c57dfce	0.013175918
103	0x3e0d1993	0.13779287
104	0xbdd22308	-0.10260588
105	0xbe2035ad	-0.15645476
106	0x3c8ac78b	0.016940853
107	0xbc85ab7f	-0.016317127
108	0x3d6c6d65	0.057721514
109	0x3c7b9c16	0.015357038
110	0x3e07db94	0.13267356
111	0xbe360b92	-0.17777851
112	0x3c787427	0.015164412
113	0xbd5f5b4e	-0.054530434
114	0xbd8a6ecd	-0.06759415
115	0x3d9e3efd	0.07726858
116	0x3e111c55	0.14170964
117	0x3d166401	0.036716465
118	0x3e2799a1	0.16367199
119	0x3d5d8c93	0.05408914
120	0x3e25bfd9	0.16186465
121	0x3e04c1f5	0.12964614
122	0xbc748c97	-0.014926097
123	0xbbcd9582	-0.0062739262
124	0x3de3031b	0.11084577
125	0x3db6d1fd	0.08926771
126	0xbd9e1c9a	-0.07720299
127	0x3de1873a	0.110121205

sequential_1_1/dense_4_1/MatMul f4 [128, 9]
0	0xbe96a1dc	-0.29420364
1	0x3db34249	0.08752877
2	0xbd523afe	-0.05132579
3	0xbd32d8a0	-0.04366362
4	0x3d7fafad	0.062423397
5	0x3e7310a7	0.23736821
6	0x3deee6ad	0.11665092
7	0x3d4de919	0.050271127
8	0xbe670f34	-0.22564393
9	0x3d89133c	0.06693122
10	0xbe08c23c	-0.13355345
11	0xbd166609	-0.036718402
12	0xbe90a2ed	-0.28249303
13	0x3d1b1292	0.037859507
14	0x3e39fbdb	0.18162481
15	0xbe096157	-0.13416038
16	0xbe7b6749	-0.24551119
17	0x3e500230	0.20313334
18	0x3dff27ee	0.12458788
19	0xbe633a40	-0.2219019
20	0x3c822fea	0.015891988
21	0xbe074d9c	-0.132132
22	0xbe1bafaa	-0.1520373
23	0xbe9d256e	-0.3069262
24	0xbdf1561f	-0.117840044
25	0xbd2f796f	-0.042840417
26	0x3e80129a	0.25014192
27	0x3c3fd850	0.011709288
28	0x3c35b58f	0.01109065
29	0x3d0d5f78	0.034514874
30	0x3e323d81	0.17406274
31	0x3e0bf8f0	0.13669181
32	0x3ec97a89	0.393513
33	0xbe05ba7c	-0.1305942
34	0x3cb73028	0.02236183
35	0xbd94c981	-0.07264996
36	0x3d923d24	0.07140568
37	0x3df02d52	0.11727394
38	0xbe1ba13c	-0.15198225
39	0xbea90897	-0.33014366
40	0xbe1f589b	-0.15561144
41	0x3d2d0ccc	0.042248532
42	0xbe8921ae	-0.26783508
43	0xbe04492d	-0.1291854
44	0x3ad18cbf	0.001598738
45	0xbe600f31	-0.21880795
46	0xbe87918a	-0.26478225
47	0xbea36054	-0.3190943
48	0xbc61d4fc	-0.01378369
49	0xbdb7f68d	-0.08982573
50	0x3bf022bf	0.007328361
51	0xbdc39a9b	-0.09550973
52	0x3e5943cb	0.21217267
53	0x3e09399f	0.13400887
54	0x3e02e686	0.1278325
55	0xbe00c7dd	-0.12576242
56	0x3e258f89	0.16168036
57	0x3e36cef3	0.17852382
58	0x3e1a0629	0.15041412
59	0xbde403b8	-0.11133522
60	0xbcc01679	-0.023448216
61	0x3e83975b	0.25701413
62	0x3e3af913	0.18259077
63	0xbd1733ad	-0.036914516
64	0x3e2dd3a6	0.16975269
65	0x3e84f119	0.25965193
66	0xbe05ebf8	-0.13078296
67	0xbe99f534	-0.30069888
68	0xbda6feb8	-0.081540525
69	0x3dc5e50e	0.09662829
70	0x3e8a67d4	0.2703234
71	0x3d49dc08	0.049282104
72	0xbe4f6bf2	-0.20256022
73	0x3e09651a	0.13417473
74	0x3e1e3152	0.15448502
75	0x3d84b152	0.06479134
76	0x3e118a74	0.14212972
77	0x3d5eac8f	0.054363783
78	0x3c3b6519	0.011437678
79	0xbdd22428	-0.102608025
80	0xbe306e92	-0.17229679
81	0x3e767ddb	0.24071448
82	0x3ce01872	0.027355406
83	0xbe3c60dc	-0.18396324
84	0x3e29faec	0.16599625
85	0xbd2b653f	-0.041844603
86	0x3ddb9cde	0.107232794
87	0x3b3447e8	0.002750868
88	0xbe82715c	-0.2547711
89	0xbda8b6b1	-0.082379706
90	0x3d43a2b3	0.047762584
91	0x3e6d8a76	0.2319735
92	0xbba2e832	-0.0049715275
93	0xbe28bdb5	-0.16478617
94	0xbe07b0da	-0.13251057
95	0xbe6b9b32	-0.23008421
96	0x3d01bfa9	0.031676922
97	0x3dbc241e	0.09186576
98	0xbe10b794	-0.1413253
99	0xbe7f5652	-0.24935272
100	0xbe1aed55	-0.15129597
101	0xbe187f43	-0.14892296
102	0x3ceeb4e4	0.02913899
103	0x3e7ca3e2	0.24671891
104	0x3e806336	0.25075692
105	0x3d61bab7	0.055109706
106	0xbe76f802	-0.24118045
107	0x3e45bd5d	0.19310518
108	0x3d8508c0	0.064958096
109	0xbdb42ce8	-0.08797628
110	0x3dd343a0	0.10315633
111	0xbd5fcfe3	-0.054641616
112	0x3d82d812	0.063888684
113	0x3e4a712a	0.19769731
114	0x3e654b2a	0.22391954
115	0x3dd7e763	0.105421804
116	0x3ea9ad31	0.33139947
117	0x3e2b17b7	0.16708265
118	0xbe3c538b	-0.18391244
119	0xbe53f8bf	-0.20700358
120	0xbe4c516d	-0.19952936
121	0x3e47d044	0.19513041
122	0xbd723abb	-0.05913804
123	0xbe674233	-0.22583847
124	0x3e523d26	0.20531139
125	0x3cc51cbc	0.024061553
126	0x3da4262f	0.080150954
127	0x3e2c604d	0.16833611
128	0x3e5749c5	0.21024235
129	0x3d5b01e4	0.0534686
130	0xbd9cc672	-0.07655038
131	0x3e995aea	0.29952174
132	0x3c214c3b	0.009844835
133	0xbd22af27	-0.03971782
134	0xbea57b04	-0.32320416
135	0xbe9e1c16	-0.30880803
136	0x3e16a385	0.14710815
137	0xbd9874d6	-0.0744416
138	0xbd280f04	-0.041029945
139	0x3e1e2bd6	0.1544641
140	0xbdf1b5cd	-0.11802254
141	0xbe587386	-0.21137819
142	0x3d36a8aa	0.044594444
143	0xbe39aad4	-0.18131572
144	0x3e387533	0.18013458
145	0x3e3a3b0a	0.18186584
146	0xbb975d96	-0.0046193106
147	0x3dac81cf	0.084231965
148	0x3da2ef6e	0.07955824
149	0x3e424f91	0.18975665
150	0x3e9bad0f	0.3040547
151	0xbd62fb9c	-0.055415735
152	0x3dd69bfa	0.10478969
153	0xbe319f67	-0.17345963
154	0x3d4f0a72	0.05054707
155	0xbe49dc83	-0.19713025
156	0x3d7de622	0.06198705
157	0xbe7affe3	-0.24511676
158	0x3e351f8f	0.1768782
159	0xbdc71eeb	-0.09722694
160	0x3c46a84d	0.012125087
161	0xbdb44b7e	-0.088034615
162	0x3d7a3951	0.061089817
163	0xbd0c4e5e	-0.034254424
164	0xbdb445cd	-0.08802376
165	0xbe9ae01b	-0.30249104
166	0x3e6ebd7a	0.23314467
167	0xbd8ffbfe	-0.070304856
168	0xbe2ee491	-0.17079379
169	0x3cad04f2	0.021120522
170	0xbc0c7937	-0.008573822
171	0x3d9960fd	0.07489202
172	0xbe5addcc	-0.21373671
173	0x3ea4848a	0.3213237
174	0x3dc4bf5e	0.09606813
175	0x3d9c9693	0.07645907
176	0xbe25701c	-0.16156048
177	0xbea3a557	-0.31962082
178	0x3d666556	0.056248985
179	0xbdc5fb15	-0.09667031
180	0x3e56cf08	0.20977414
181	0xbe2f056f	-0.17091917
182	0xbe6cf1d2	-0.23139122
183	0x3e09b921	0.13449527
184	0x3dd65635	0.104656614
185	0x3d25e2ea	0.040499605
186	0xbd785c62	-0.060634978
187	0x3d651dcb	0.055936616
188	0xbe4e7ab5	-0.20163997
189	0xbd44914f	-0.04799014
190	0x3e1c0d3f	0.15239428
191	0xbe534dde	-0.20635173
192	0xbdb98535	-0.0905861
193	0x3e2fa5f5	0.17153151
194	0x3e45de09	0.19322981
195	0xbdaeb20d	-0.08530054
196	0x3e921a46	0.2853567
197	0xbd36da17	-0.04464158
198	0xbe1b74bf	-0.15181254
199	0xbe82d291	-0.25551274
200	0x3df569a0	0.11983037
201	0xbeb8528b	-0.36000475
202	0x3cf3a6c1	0.0297426
203	0x3e792179	0.24329175
204	0xbe3f0a19	-0.18656196
205	0x3da5e6af	0.0810064
206	0x3e1b7835	0.15182574
207	0xbd9c9f77	-0.07647603
208	0x3e7f9d73	0.24962406
209	0x3d8ea15d	0.06964371
210	0xbe901a83	-0.28145227
211	0xbe633495	-0.22188027
212	0x3dadb7d2	0.084823266
213	0x3e25f316	0.16206011
214	0xbe1b17c5	-0.15145786
215	0xbe1ed543	-0.1551104
216	0xbcb5a6d7	-0.022174282
217	0x3e301b48	0.17197907
218	0xbcbc6aff	-0.023000238
219	0x3ea53783	0.32268915
220	0x3d152d65	0.036420245
221	0x3da90daf	0.08254563
222	0xbe8c707b	-0.27429566
223	0xbd32acac	-0.043621704
224	0xbd96a203	-0.0735512
225	0x3e841554	0.25797522
226	0x3d1652fe	0.03670024
227	0xbe2f98ac	-0.17148083
228	0xbe9a46c6	-0.3013212
229	0x3e134b50	0.14384198
230	0x3e5e1137	0.21686254
231	0xbe351ba4	-0.17686325
232	0x3e8b6038	0.27221847
233	0x3bf10625	0.007355469
234	0x3cb88387	0.022523655
235	0x3d7a4d6b	0.061108988
236	0x3e22ab0f	0.15885566
237	0xbc16965e	-0.009191124
238	0xbaff34d5	-0.0019470701
239	0x3d58679f	0.052833196
240	0x3dab7e70	0.083737254
241	0xbddf8134	-0.109133154
242	0x3e1c3f10	0.15258431
243	0xbe3c4ed6	-0.18389449
244	0x3d727f51	0.05920345
245	0xbd112b5e	-0.03544175
246	0xbc1fa704	-0.0097444095
247	0x3e799f04	0.24377066
248	0x3e295e8b	0.16539972
249	0xbe3f98fd	-0.18710704
250	0x3da160c5	0.078797854
251	0x3e0da967	0.13834153
252	0xbea8e92e	-0.32990402
253	0x3d2d80c2	0.04235912
254	0x3e0156ec	0.12630814
255	0xbe3920d0	-0.18078923
